…
d":"rGddMRBuRir_","executionInfo":{"status":"ok","timestamp":1609778616198,"user_tz":-420,"elapsed":2771,"user":{"displayName":"Cầm Lê Đức","photoUrl":"","userId":"17152391132836560607"}},"outputId":"5b4c72fb-62f2-43c7-e5e9-416982ebc717"},"source":["model.summary()"],"execution_count":null,"outputs":[{"output_type":"stream","text":["Model: \"sequential\"\n","_________________________________________________________________\n","Layer (type)                 Output Shape              Param #   \n","=================================================================\n","conv2d (Conv2D)              (None, 218, 218, 32)      4736      \n","_________________________________________________________________\n","max_pooling2d (MaxPooling2D) (None, 109, 109, 32)      0         \n","_________________________________________________________________\n","conv2d_1 (Conv2D)            (None, 105, 105, 32)      25632     \n","_________________________________________________________________\n","max_pooling2d_1 (MaxPooling2 (None, 52, 52, 32)        0         \n","_________________________________________________________________\n","conv2d_2 (Conv2D)            (None, 50, 50, 32)        9248      \n","_________________________________________________________________\n","max_pooling2d_2 (MaxPooling2 (None, 25, 25, 32)        0         \n","_________________________________________________________________\n","conv2d_3 (Conv2D)            (None, 23, 23, 64)        18496     \n","_________________________________________________________________\n","max_pooling2d_3 (MaxPooling2 (None, 11, 11, 64)        0         \n","_________________________________________________________________\n","dropout (Dropout)            (None, 11, 11, 64)        0         \n","_________________________________________________________________\n","flatten (Flatten)            (None, 7744)              0         \n","_________________________________________________________________\n","dense (Dense)                (None, 64)                495680    \n","_________________________________________________________________\n","dense_1 (Dense)              (None, 1)                 65        \n","=================================================================\n","Total params: 553,857\n","Trainable params: 553,857\n","Non-trainable params: 0\n","_________________________________________________________________\n"],"name":"stdout"}]},{"cell_type":"code","metadata":{"colab":{"base_uri":"https://localhost:8080/"},"id":"TkiSJxgMRiue","executionInfo":{"status":"ok","timestamp":16
…
